subiculum/code/models/model1.pt (torch, 623088 bytes, 34 tensors)

core.0.weight f4 [32, 1, 11, 11]
000000 17 6b c3 3c 2d a4 3c bf c0 6c 21 bf 91 5a 1a bf
       0.023854775 -0.7368801 -0.63056564 -0.60294443
000010 4f 1b 0f bf 03 0f 0c bf 07 7b 17 bf 0a 69 0d bf
       -0.55901045 -0.54710406 -0.591721 -0.552384
000020 8a 22 04 bf 1a 0f 26 bf 08 44 09 bf 33 7f 13 3f
       -0.516152 -0.64866793 -0.5361943 0.57615966
000030 38 eb 30 bf 23 6b 12 bf 82 f8 29 bf 29 82 19 bf
       -0.69108915 -0.5719473 -0.6639482 -0.59964234
000040 1f b7 32 bf 8e 52 27 bf 69 82 1d bf 0b 20 0c bf
       -0.6981067 -0.65360343 -0.61527115 -0.54736394
000050 54 02 2f bf b6 1c 26 bf b4 f1 00 3f 95 99 41 bf
       -0.6836293 -0.6488756 0.5036881 -0.7562497
000060 5f 3d 3f bf 90 be 34 bf 45 83 15 bf fc 38 2c bf
       -0.7470302 -0.70603275 -0.58403426 -0.6727445
000070 49 44 0a bf e0 e4 29 bf cd 4c 15 bf f6 a1 11 bf
       -0.54010445 -0.6636486 -0.58320314 -0.5688776
000080 35 3f 26 bf b6 53 07 3f eb 5b bd 3e 5e 2a 47 bf
       -0.64940196 0.5286211 0.3698419 -0.7779902
000090 c1 b2 35 bf 85 cf 39 bf 5f 79 40 bf 97 61 31 bf
       -0.7097588 -0.72582275 -0.751852 -0.69289535
0000a0 9a bf a5 be 96 e5 47 bf d3 5e 14 bf 55 4e 27 bf
       -0.32372743 -0.78084695 -0.5795719 -0.653539
0000b0 86 24 1c 3f 70 94 ed 3e 49 5d 18 3f b2 46 a8 3e
       0.6099323 0.4640231 0.5951734 0.32866436
0000c0 d7 6f 42 bf 2f a8 6a bf 30 eb a4 3e 86 1b d9 3e
       -0.75951904 -0.9166288 0.32210684 0.4240381
0000d0 13 a9 bc 3e 8d 58 1f bf c6 7a 21 bf 5a 6e f7 3e
       0.36847743 -0.6224449 -0.6307796 0.4832638
0000e0 d2 6a f0 3e e5 17 08 3f 11 81 a8 3e a4 15 43 3d
       0.46956497 0.5316146 0.3291097 0.04762806
0000f0 49 b3 44 be f4 56 2e bf 6e 56 3a bf ec fd 56 bf
       -0.19209017 -0.6810143 -0.7278813 -0.83981204
000100 3b 84 1e bf 34 ea 46 bf c8 65 0c 3f c2 f4 02 3f
       -0.6192052 -0.77701116 0.54842806 0.5115472
000110 ef 83 0e 3f 72 ca 93 3e 7b 1c 52 bf f8 cb 54 bf
       0.55670065 0.2886539 -0.8207471 -0.8312373
000120 e3 95 78 be 8c 95 3c bf 56 ae 27 bf 5f 6b 21 bf
       -0.24275927 -0.7366569 -0.6550039 -0.6305446
000130 bd f9 28 bf eb b8 1b 3f 71 85 03 3f 0e 73 f9 3e
       -0.6600607 0.6082904 0.5137549 0.48720592
000140 28 af c3 3e 68 97 48 bf a5 b8 38 bf 72 be 0e 3e
       0.3821957 -0.7835603 -0.72156745 0.13939837
000150 63 03 95 3e 6b 93 4e bf 41 c0 25 bf b9 15 16 bf
       0.29104146 -0.8069369 -0.6474648 -0.58626896
000160 81 fe 01 3f f5 53 05 3f 55 95 fb 3e 24 c8 fa 3e
       0.5077897 0.52081233 0.4913737 0.4898082
000170 69 1d 53 bf 8c 5d 42 bf 77 d9 47 bf 59 55 3f bf
       -0.8246675 -0.7592399 -0.780662 -0.74739605
000180 12 9f 29 bf 53 95 3c bf 88 cd 48 bf e1 73 0e 3f
       -0.6625835 -0.7366535 -0.78438616 0.5564557
000190 f3 73 02 3f a1 89 eb 3e 98 4d 4d 3e 46 b3 47 bf
       0.50958174 0.4600344 0.20049131 -0.78007925
0001a0 23 1c 2c bf 3d a5 46 bf e8 ab 44 bf 69 44 51 bf
       -0.67230433 -0.77595884 -0.7682481 -0.8174501
0001b0 84 ac 31 bf 43 0d 53 bf 38 a0 d6 3e 41 5e 97 3e
       -0.6940386 -0.8244211 0.41919112 0.29564098
0001c0 96 9f 7f 3e 4e 66 4e bf 82 87 3a bf b0 bf 38 bf
       0.24963221 -0.80624855 -0.7286302 -0.7216749
0001d0 8f ef 2c bf 72 ae 46 bf 3b 24 55 bf 0a d6 5b bf
       -0.6755304 -0.7760993 -0.8325841 -0.8587347
0001e0 dc 10 39 bf 9d e5 08 bf 41 10 21 bf 4e b1 04 bf
       -0.7229135 -0.5347536 -0.62915426 -0.51833045
0001f0 c2 f0 07 bf 8c 1c 07 bf 04 02 0e bf db ca 1d bf
       -0.5310174 -0.52777934 -0.55471826 -0.6163766
000200 f0 3f 1b bf b7 19 17 bf b1 47 19 bf 1a 9d 19 bf
       -0.60644436 -0.5902361 -0.5987502 -0.6000534
000210 7a fd 0c bf a6 26 10 bf 09 a3 26 bf e3 3b 1e bf
       -0.55074275 -0.5630897 -0.6509252 -0.6181013
000220 fa 41 0c bf 0e 3b 0f bf f3 2d 08 bf a3 06 26 bf
       -0.5478817 -0.55949485 -0.5319511 -0.64853877
000230 fd 77 1c bf 88 fa 06 bf 9a 29 11 bf 2c 73 12 bf
       -0.6112059 -0.5272603 -0.56704104 -0.5720699
000240 1b 51 20 bf 7e bf 0f bf 4e 7d 0c bf cb 1e 24 bf
       -0.6262376 -0.5615157 -0.548787 -0.64109486
000250 59 57 ad be ed 04 01 bf 4d 13 08 bf 8f 8b 26 bf
       -0.33855703 -0.5039814 -0.5315445 -0.650567
000260 4d 91 2c bf ff 30 19 bf 83 87 10 bf e0 d0 16 bf
       -0.6740921 -0.5984039 -0.56456774 -0.5891247
000270 56 4b 1f bf b6 30 1e bf b3 5d 13 bf 3b 8a f4 be
       -0.6222433 -0.61793077 -0.5756485 -0.4776171
000280 2b 59 19 bf 1f cf 24 bf 2b d8 1d bf 3b 7f 22 bf
       -0.59901685 -0.6437854 -0.6165797 -0.6347539
000290 51 3e 19 bf 08 85 09 bf 72 39 31 bf 1d 17 29 bf
       -0.5986071 -0.53718615 -0.6922828 -0.66050893
0002a0 88 84 0c bf 3b f3 24 bf 64 1e 09 bf 11 3f 2a bf
       -0.54889727 -0.6443364 -0.53562 -0.6650248
0002b0 fa 8f 2d bf 81 b0 1b bf c4 54 06 bf 28 36 0d bf
       -0.67797816 -0.608162 -0.5247309 -0.5516076
0002c0 97 b4 2b bf 43 b9 22 bf 56 c7 1c bf 91 49 05 bf
       -0.67072433 -0.63563937 -0.6124166 -0.5206538
0002d0 52 b4 14 bf 9a 7f 25 bf d6 70 0c bf ce 68 05 bf
       -0.58087647 -0.6464783 -0.54859674 -0.52113044
0002e0 e4 45 28 bf 39 74 2a bf 33 0e 07 bf ce 21 17 bf
       -0.65731645 -0.6658359 -0.5275604 -0.59035957
0002f0 2f db 2f bf 0f 1e 05 bf f9 32 1d bf 87 c6 04 bf
       -0.6869382 -0.5199899 -0.61405903 -0.5186543
000300 26 67 08 bf 39 ad 22 bf 88 79 1c bf 0d 9c 13 bf
       -0.5328239 -0.63545567 -0.6112294 -0.5765999
000310 0b d8 19 bf a3 96 09 bf c8 dc 24 bf 97 20 10 bf
       -0.6009528 -0.5374548 -0.64399385 -0.5629973
000320 5a 2d 29 bf 7c 9f 20 bf 3f a7 1e bf 62 5e 25 bf
       -0.66084826 -0.62743354 -0.6197395 -0.6459714
000330 8f a6 19 bf a8 1f 1b bf 14 df 04 bf f7 00 29 bf
       -0.60019773 -0.6059518 -0.5190289 -0.660171
000340 94 0e 27 bf cb f7 16 bf 7b 7b 18 bf 9f d9 0c bf
       -0.6525662 -0.5897185 -0.59563416 -0.55019563
000350 47 d9 2a bf 13 35 1f bf 86 f1 2e bf d8 e1 2d bf
       -0.6673779 -0.6219036 -0.68337286 -0.67922735
000360 42 e6 04 bf 42 16 11 bf 61 e3 2a bf 37 e7 13 bf
       -0.51913846 -0.5667459 -0.667532 -0.5777468
000370 48 83 19 bf aa be 19 bf df 57 14 bf c4 c5 2c bf
       -0.59965944 -0.60056555 -0.5794658 -0.67489266
000380 f6 d2 1d bf 83 f0 23 bf a0 71 23 bf d0 a0 03 bf
       -0.61650026 -0.64038867 -0.63845253 -0.51417255
000390 a6 bc 24 bf 2b 70 28 bf 85 a1 1b bf 9d e9 0a bf
       -0.64350355 -0.65796155 -0.60793334 -0.54262716
0003a0 c4 ee 34 bf d9 cf 19 bf 4d b9 23 bf 13 31 0f bf
       -0.7067683 -0.60082775 -0.6395462 -0.55934256
0003b0 78 7f 19 bf d5 d1 24 bf b3 cf 27 bf ac 4f 0c bf
       -0.59960127 -0.6438268 -0.655513 -0.5480907
0003c0 c1 25 20 bf b4 94 22 bf 3b f8 e4 3f f7 bd 89 3f
       -0.6255761 -0.6350815 1.7888254 1.0761098
0003d0 ac 45 6d 3f f3 d6 4d 3f 5b b4 59 3f 73 3f 6a 3f
       0.92684436 0.8040611 0.85040826 0.91503066
0003e0 5d ea 61 3f d0 e0 6a 3f 81 ab 73 3f 51 5e 4e 3f
       0.88248235 0.91749287 0.9518357 0.80612665
0003f0 84 ee 47 3f 88 98 b1 3f 83 00 7a 3f cc 64 76 3f
       0.7809832 1.3874674 0.9765703 0.96247554

core.0.bias f4 [32]
000000 3a cf c0 bd 4d 3c b6 bc b3 89 bb 3d 64 eb c9 3c
       -0.09414525 -0.02224555 0.091571234 0.024648376
000010 24 99 ba bc 86 e9 98 bb 4f e4 02 3d 41 28 d6 ba
       -0.022778101 -0.00466651 0.031956013 -0.0016338901
000020 2a 33 50 bc 4e f3 44 3d cd 9a e3 bb 95 c3 3a bd
       -0.012707511 0.048083596 -0.006945944 -0.045596678
000030 b0 e1 08 bd 97 b0 af bd af e5 d2 3d 5e 81 b5 3d
       -0.033418357 -0.08578604 0.10297715 0.088625655
000040 d6 35 57 bd 34 9d 0d bc 93 92 87 3c 83 31 01 bd
       -0.052541576 -0.008643437 0.016549384 -0.03154136
000050 21 71 1d 3d f3 8f 64 bd 5a 03 27 bd 3f b2 0c bc
       0.038437966 -0.055801343 -0.04077468 -0.008587419
000060 55 90 b7 3d c0 15 da 3c ce 23 db bc fc e4 14 3d
       0.08963076 0.0266217 -0.026750471 0.03635119
000070 05 c3 b3 bd df e2 17 3d 76 1e a1 3c ba c8 8b 3b
       -0.087774314 0.037081596 0.019667845 0.004265872

core.1.weight f4 [32]
000000 7e b0 a9 3e 53 d5 8b 3e d0 d2 a1 3f 8c 5a 80 40
       0.33142465 0.2731119 1.264246 4.011053
000010 59 0e a1 3f d1 41 58 3f 3c 1d ab 3f 33 ce b0 3d
       1.2582504 0.8447543 1.3368297 0.086330794
000020 8f b1 60 3f cd 0c df 3d d8 fe 79 40 ed 5d 1e 3f
       0.8777093 0.108911134 3.9061794 0.6186207
000030 8f 62 9d 3e 26 45 12 40 c7 c6 2b 40 eb 84 c7 bc
       0.30739257 2.2854705 2.6840074 -0.024355372
000040 7e 1c be 3c bd ec a3 3e d9 f0 49 3d 64 5c d5 bd
       0.023206946 0.32016554 0.049301956 -0.10418013
000050 4a 2f 1b 40 47 a6 21 40 a6 80 bf 3f c9 f2 5a bd
       2.4247613 2.5257738 1.4961135 -0.053454194
000060 4e 72 38 40 cb 89 b2 3e 50 48 be 3e 45 fa 0a 40
       2.8819766 0.34870753 0.37164545 2.1715252
000070 65 bf dc 3f 15 ab c2 3d 2e ad 13 40 a5 65 e7 3f
       1.7245909 0.095052876 2.307445 1.8077894

core.1.bias f4 [32]
000000 9c a1 58 bf f3 56 4b 3f 8a 0f a2 3e f8 41 cf 3f
       -0.84621596 0.7942955 0.3165248 1.6192007
000010 05 c5 a8 3f 5a 73 cc 3e 3a 85 22 3f 71 40 8b bf
       1.3185126 0.39931756 0.6348454 -1.0879041
000020 62 60 cc bf b2 fb bd bf 99 a7 b9 3f ee d8 07 3f
       -1.5966914 -1.4842436 1.4504272 0.53065383
000030 4b 08 28 bf bc 89 b8 3f 31 b9 93 3f 0d bb 08 bf
       -0.65637654 1.4417033 1.1540891 -0.53410417
000040 6f 6c 83 bf 4f ab 01 bf 49 13 71 bf fb 19 86 bf
       -1.0267466 -0.5065202 -0.9417005 -1.0476679
000050 57 39 77 3f f3 f5 97 3f 9c d8 d6 3e 51 69 0d bd
       0.9657187 1.1871933 0.41962135 -0.034524266
000060 e5 85 bc 3f 57 ec 4b bf 77 3d 3d 3f 47 b4 a1 3f
       1.4728361 -0.796575 0.7392191 1.2633141
000070 65 20 e4 be 32 9d 1e bf b7 d9 ae 3f f8 ad 99 3f
       -0.44555965 -0.6195861 1.3660191 1.2006216

core.1.running_mean f4 [32]
000000 f0 70 22 bf c1 89 c2 bf bf f5 d2 3f 04 61 98 3f
       -0.6345358 -1.5198289 1.6481246 1.1904607
000010 f2 07 84 bf 6c 0d bf 3f 67 3d c7 3f 7c 5b 8e bf
       -1.0314925 1.4925971 1.5565614 -1.1121669
000020 55 b2 ac bd 56 ee 3e bf 16 01 df 3f 06 83 68 3f
       -0.08432452 -0.7458242 1.7422206 0.90824926
000030 5f 16 af be cd a8 c5 3f d6 e0 b3 3f 87 01 85 3f
       -0.34196755 1.5442139 1.405299 1.0391091
000040 18 17 87 bf 5d b1 76 bf 9c 94 18 3f 02 a4 42 bf
       -1.0553923 -0.96364385 0.5960176 -0.76031506
000050 59 13 ea 3f 48 eb 3d 3e 1b 73 25 3f 56 3e 8e 3f
       1.8287154 0.18546784 0.6462876 1.1112773
000060 3d 8c 97 3f 09 21 86 bd 84 c8 a5 bf b7 29 52 3f
       1.1839672 -0.0654927 -1.2951818 0.820949
000070 51 6f 26 bf d8 8c 77 bf 27 ec f4 3f e4 84 b5 3f
       -0.65013605 -0.96699286 1.9134568 1.418118

core.1.running_var f4 [32]
000000 bb 18 bc 44 59 e6 84 45 01 62 90 45 06 c6 f4 44
       1504.7728 4252.7935 4620.2505 1958.1882
000010 73 d6 2c 45 de f5 85 45 5b d5 86 45 de eb 23 45
       2765.403 4286.7334 4314.6694 2622.7417
000020 40 c3 30 44 88 fe c6 44 ae 64 8c 45 b7 5b 19 45
       707.0508 1591.9541 4492.585 2453.7322
000030 aa c6 3c 44 cc 19 85 45 4f d7 0d 45 f1 6f ed 44
       755.1041 4259.2246 2269.4568 1899.4982
000040 16 d7 0b 45 39 78 ec 44 8c c3 ab 44 eb ef 7b 44
       2237.4429 1891.757 1374.1108 1007.7487
000050 fe 0b 9a 45 10 3b 88 44 d1 ff fc 44 40 49 0d 45
       4929.499 1089.8457 2023.9943 2260.5781
000060 a3 87 b1 45 ac 33 dd 43 e8 03 20 45 3a 90 73 44
       5680.9546 442.4037 2560.2441 974.25354
000070 53 ff 2c 44 71 87 e3 44 2b 26 b0 45 d5 1c 50 45
       691.98944 1820.2325 5636.771 3329.802

core.3.weight f4 [32, 32, 6, 6]
000000 68 9d 1a bf bf 37 13 bf dd b3 1c bf 89 93 12 bf
       -0.6039643 -0.57506937 -0.6121195 -0.5725637
000010 1e 14 16 bf 27 c7 13 bf ab dd 19 bf 9f eb 1f bf
       -0.58624446 -0.5772576 -0.60103863 -0.62468904
000020 91 41 1a bf 58 d0 15 bf fe 08 14 bf b6 27 1b bf
       -0.60256296 -0.5852103 -0.5782622 -0.6060747
000030 db 5b 16 bf 07 c9 12 bf df 76 14 bf ce 7d 1d bf
       -0.5873391 -0.57337993 -0.5799388 -0.6152009
000040 a3 c9 1c bf 64 cc 1a bf 7f 3f 15 bf c5 5f 1b bf
       -0.61245173 -0.60468125 -0.5830001 -0.6069301
000050 59 88 13 bf d0 11 19 bf 13 d9 1a bf 1c 7a 16 bf
       -0.57629925 -0.59792805 -0.6048748 -0.58780074
000060 27 6b 1e bf e7 5b 19 bf 99 48 17 bf 0f 72 15 bf
       -0.6188225 -0.59905857 -0.5909515 -0.58377165
000070 22 5a 1f bf 6d 2f 22 bf cc 14 16 bf 44 5d 1e bf
       -0.62246907 -0.63353616 -0.58625484 -0.6186106
000080 5a 67 1e bf 89 64 16 bf 04 c1 16 bf be d6 22 bf
       -0.6187645 -0.58747154 -0.5888827 -0.6360892
000090 bc b0 25 bf 8c cc 1d bf 67 db 1f bf 4d 1e 21 bf
       -0.647228 -0.6164024 -0.62444156 -0.6293686
0000a0 7d 59 38 bf c9 33 26 bf 5f da 2e bf a5 84 20 bf
       -0.7201155 -0.6492277 -0.6830196 -0.627024
0000b0 bf 91 1e bf ed 06 0c 3f c2 cb 17 3f 48 aa 57 be
       -0.6194114 0.5469807 0.59295285 -0.21061051
0000c0 55 0c 07 3f 00 00 09 3f 1e 7a 52 bf 61 f8 17 3f
       0.5275319 0.53515625 -0.82217586 0.5936337
0000d0 77 59 1e 3f bf be 0a 3f 29 46 05 3f d3 53 0b 3f
       0.6185526 0.54197305 0.5206018 0.5442478
0000e0 ca e9 1a bf a5 73 2f bf eb 9d 0e 3f 53 21 d2 3e
       -0.60512984 -0.68535835 0.55709714 0.4104105
0000f0 cb e0 d3 3e 66 56 33 bf 18 20 1d bf 2d d4 18 bf
       0.4138244 -0.7005371 -0.61377096 -0.59698755
000100 d3 70 30 bf 7a 3f 21 bf f0 f5 e8 3e a4 cc 21 bf
       -0.68922156 -0.6298748 0.45500135 -0.6320288
000110 e7 58 13 bf d8 eb 14 bf 8f 2a 17 bf 6f c0 15 bf
       -0.5755753 -0.5817237 -0.59049314 -0.58496755
000120 f4 97 0a 3f a5 f8 49 bf 60 c7 39 bf a5 2b 33 bf
       0.5413811 -0.78895026 -0.7256985 -0.6998847
000130 cf fa 1e bf 23 9d 22 bf b3 c9 20 3f 76 0b 0c 3f
       -0.62101454 -0.6352102 0.6280777 0.5470499
000140 0d 1d 37 bf 25 19 3d bf db df 26 bf 9a 6b e2 be
       -0.715287 -0.7386649 -0.65185326 -0.44222718
000150 dc 51 24 3f 0c 60 0a 3f 18 b2 41 bf 3e a4 32 bf
       0.6418741 0.54052806 -0.75662374 -0.69781864
000160 e6 4a 08 3f 6f a1 10 3f c1 91 1c 3f e4 68 02 3f
       0.53239286 0.5649633 0.611599 0.509413
000170 a0 5c df 3d 10 07 b3 3e 31 50 0a 3f d3 3b 16 3f
       0.10906339 0.34966326 0.5402861 0.58685035
000180 e3 b3 22 3f 01 22 17 3f b2 4d 09 3f 4a 25 e3 3e
       0.63555735 0.5903626 0.5363418 0.44364387
000190 48 8e 0e 3f 76 08 15 3f e2 78 1b 3f c6 d9 17 3f
       0.55685854 0.58216035 0.6073133 0.5931667
0001a0 51 e5 0e 3f 7b a1 0e 3f d2 4f 12 3f 2e b3 12 3f
       0.5581866 0.5571515 0.57153046 0.57304657
0001b0 39 20 20 3f f2 35 e5 3e 38 99 d2 3e fb 8e 4b be
       0.6254917 0.4476772 0.41132522 -0.19878761
0001c0 91 ba cd 3d 22 a0 ce 3e 77 26 9b 3f f6 33 64 3f
       0.1004535 0.40356547 1.2121114 0.89141786
0001d0 4b 80 16 3f fc 75 2f bf 2d 89 2a bf 22 61 0e bf
       0.5878951 -0.68539405 -0.66615564 -0.5561696
0001e0 dd 9a 6d 3f 40 8b 38 3f 05 03 20 3f 20 7c 18 3f
       0.9281443 0.7208748 0.6250461 0.595644
0001f0 d0 3e 15 3f dc 3d 23 3f 80 41 01 40 99 a2 5c 3f
       0.5829897 0.63766265 2.0196228 0.86185604
000200 fd 7c 32 3f 6c 37 04 3f 42 19 08 3f 35 75 14 3f
       0.69721967 0.5164707 0.5316354 0.57991344
000210 ce 17 0c 40 d9 f0 a3 3f 4f f0 e7 be eb 72 28 bf
       2.188953 1.2807876 -0.45300528 -0.6580035
000220 d5 81 3e bf 89 fb 07 3f 30 9d 5d 3f f9 84 4b 3f
       -0.7441686 0.5311819 0.86567974 0.79499775
000230 c3 a0 2a 3f b2 8b 21 3f e2 71 dd be cc e5 fb 3e
       0.6665155 0.63103783 -0.43250948 0.4919876
000240 30 9d 47 3f 85 32 3f 3f 0f b7 1f 3e 43 0f c5 be
       0.77974224 0.7468646 0.15597175 -0.38488206
000250 9e 96 f1 3d fe 34 a3 3e f6 e6 81 3f 86 a2 87 3f
       0.11796306 0.31876367 1.0148609 1.0596473
000260 39 ea 86 3e 79 ec e3 3e c5 87 9f 3e 58 20 d7 3e
       0.26350573 0.44516352 0.3115827 0.42016864
000270 80 53 84 3f 66 3d d0 3f d9 c7 84 3f e3 ec 1d 3f
       1.0337982 1.6268737 1.0373489 0.61689585
000280 d3 aa 05 3f fc b9 fa 3e d5 96 5f 3f e3 0c 66 3f
       0.5221378 0.4897002 0.87339526 0.89863414
000290 bb d6 5d 3f 6a c7 2e 3f 5f 60 0e 3f e3 14 08 3f
       0.8665578 0.6827303 0.556158 0.5315687
0002a0 c9 d3 5b 3f 56 14 4b 3f b6 da 62 3f a8 c5 45 3f
       0.85870034 0.79327905 0.88614976 0.77254725
0002b0 58 6e 19 3f e1 4d 14 3f dc c6 62 3f 83 7a 58 3f
       0.59933996 0.57931334 0.88584685 0.8456194
0002c0 6c 48 96 3f 63 0e 62 3f f7 35 38 3f 1a 0b 21 3f
       1.1740851 0.883032 0.71957344 0.62907565
0002d0 68 76 12 bf a8 e2 17 bf 99 ca 1c bf 36 5b 23 bf
       -0.57211924 -0.59330225 -0.6124664 -0.6381105
0002e0 33 9f 19 bf d7 34 1a bf c3 88 9e 3f 3a 26 b2 be
       -0.60008544 -0.6023688 1.2385486 -0.3479479
0002f0 3f be d7 be 03 37 29 3f 50 d2 0c bf f9 c1 0b bf
       -0.42137334 0.66099566 -0.5500841 -0.54592854
000300 20 73 d8 3f 4e b7 a2 be cc 0a f8 be e8 79 0b bf
       1.6910133 -0.31780475 -0.48445737 -0.5448289
000310 17 15 13 bf c5 4a e3 be d7 3b d2 be 1e 81 04 bf
       -0.57454056 -0.44392982 -0.4106128 -0.5175952
000320 40 57 11 bf e2 9f 0e bf 22 91 13 bf e2 f6 16 bf
       -0.5677376 -0.5571271 -0.5764333 -0.58970463
000330 8b ba 16 3f 71 8d 08 bf c4 e5 12 bf 18 6a 1a bf
       0.5887839 -0.5334082 -0.57381845 -0.60318136
000340 93 aa 1b bf c1 30 1b bf db 64 4a 3f c9 99 0f bf
       -0.6080715 -0.6062127 0.79060143 -0.5609403
000350 a4 e2 10 bf 0d be 1f bf 00 93 19 bf c1 95 54 be
       -0.56595826 -0.6239937 -0.5998993 -0.20760252
000360 db d7 08 bf 25 9e 11 3f 0e d3 0d 3f c0 18 10 3f
       -0.5345437 0.56881934 0.5540017 0.56287766
000370 19 ba 08 3f 3a 70 33 bf cc b3 8b 3f 25 e4 1c 3f
       0.5340896 -0.7009312 1.0914245 0.6128562
000380 0d 7c 14 3f 43 84 11 3f 92 f1 05 3f f7 06 16 bf
       0.58001786 0.5684244 0.5232173 -0.5860438
000390 74 97 33 3f 63 e7 18 3f 7e de 16 3f 36 14 c6 3e
       0.70152974 0.5972807 0.58933246 0.38687295
0003a0 81 00 23 bf 2d 12 18 bf e4 16 ef be 51 62 1a 3f
       -0.63672644 -0.59402734 -0.46697152 0.6030627
0003b0 48 08 11 3f 42 60 e2 3e 0e a1 3a bf de ba 23 bf
       0.5665326 0.44214064 -0.72902 -0.6395701
0003c0 29 38 0a bf 0d c2 0c 3f ee be 32 bf d5 d0 28 bf
       -0.53991944 0.549836 -0.69822586 -0.6594365
0003d0 a5 bf 25 bf 91 53 21 bf 98 42 03 bf d2 49 f5 be
       -0.6474555 -0.6301814 -0.5127349 -0.47907883
0003e0 64 f1 1e bf b7 97 26 bf d6 5a 1d bf 11 5a 28 bf
       -0.6208708 -0.6507525 -0.6146673 -0.6576243
0003f0 08 11 10 3f ad 37 03 3f 10 80 05 3f f4 4b 11 3f
       0.5627599 0.5125683 0.5214853 0.5675652

core.3.bias f4 [32]
000000 2d f4 21 3d e3 a7 c2 bc 79 c9 14 bc 37 dd d0 bc
       0.039539505 -0.023761695 -0.009081238 -0.025496108
000010 5f 0e c6 bc 2b 4f ad 3c 74 9d 88 bc 66 3c b6 bb
       -0.024176775 0.021155914 -0.016676642 -0.0055613993
000020 89 76 01 3c 66 90 5c bb 5e 58 af bc fc c5 0d 3c
       0.007901796 -0.0033655404 -0.021404441 0.00865316
000030 02 ba 03 bd 41 39 37 bc 77 59 7b 3c 65 17 e6 bc
       -0.032159813 -0.011183084 0.015341154 -0.028087327
000040 61 77 92 bb 47 14 2c bd 38 35 15 3d a4 91 d3 bc
       -0.0044697975 -0.042011525 0.036427706 -0.025826283
000050 b3 ef 1f bb 46 be 15 3c 01 88 22 bc a9 6b 9f 3c
       -0.0024404346 0.009139603 -0.009920121 0.019460516
000060 51 49 a2 3c bf f1 b2 3c 37 40 0d 3c 1a b3 a3 ba
       0.01981035 0.02184379 0.008621267 -0.001248929
000070 a8 bf f8 bc c2 10 65 3c eb c4 40 3b c2 9b 0d 3c
       -0.030364826 0.013981046 0.0029414247 0.008643093

core.4.weight f4 [32]
000000 95 f0 5a 40 eb 77 59 be da 55 3c 3d 22 21 27 40
       3.420934 -0.21237151 0.045980312 2.6113973
000010 96 1a df 3f 0d c2 1d 3e 54 a1 15 40 bf 40 23 40
       1.7429988 0.15406056 2.3379717 2.5508268
000020 23 c2 7f 40 d7 ad 93 3e 65 97 96 3c 62 28 5d 3f
       3.9962242 0.28843567 0.018382737 0.86389744
000030 03 57 cf 3f d6 12 57 3f 47 f4 20 40 c7 81 b7 bc
       1.6198429 0.84013116 2.5149095 -0.02240075
000040 37 3c 27 40 28 48 0b 3c 65 10 0d 40 4c 0f c5 bc
       2.6130502 0.00850109 2.2041256 -0.024055146
000050 22 d5 6d 3f 58 81 80 3e 36 43 28 40 ef fc 67 3d
       0.9290334 0.2509868 2.6291022 0.0566377
000060 d4 a2 2b 40 6e b7 34 bf 74 21 3a 40 55 ef 26 3e
       2.6818132 -0.7059239 2.9082918 0.16302235
000070 ba 4a 5a 3f 73 a7 0c bf 14 32 a0 3f 27 72 dd 3f
       0.85270274 -0.5494301 1.2515283 1.7300462

core.4.bias f4 [32]
000000 37 c1 f2 be 3b b9 98 bf e6 4b 22 bf f8 4e 04 bf
       -0.47413036 -1.1931528 -0.6339706 -0.51682997
000010 1e 93 a4 be 43 9a e5 3e 5d 35 9e 3f 52 ea 61 be
       -0.32143492 0.44844255 1.2360035 -0.22062042
000020 8c 31 cf 3f 25 b0 51 be 12 b7 ac bf a1 ff bd bf
       1.6186996 -0.2047735 -1.3493369 -1.4843637
000030 09 d3 fa 3f d1 88 38 40 ad 42 cb 3f 45 14 bd bf
       1.9595653 2.8833506 1.5879723 -1.4771811
000040 0f 30 0f 3f db 02 5e bf 65 07 86 3f d3 5f 9c bf
       0.55932707 -0.8672311 1.0471007 -1.2216743
000050 8c 32 46 bf 0c 89 7d bf c9 14 99 3f 66 4d 67 bf
       -0.7742088 -0.9903724 1.1959468 -0.90352476
000060 9b 3d bd 3f 47 7a ad be 71 77 9d 3f 37 33 f0 be
       1.4784425 -0.33882353 1.2302076 -0.46914074
000070 90 44 fa 3e d3 2d 70 bf bf 28 41 3e 30 07 be 3e
       0.48880434 -0.9381992 0.188632 0.3711486

core.4.running_mean f4 [32]
000000 44 23 b0 41 1a 69 8c 41 66 f0 96 c2 af 26 03 c3
       22.01722 17.55132 -75.46953 -131.15111
000010 cd c2 49 43 f2 97 1f 43 c1 98 a8 42 98 43 42 43
       201.76094 159.59354 84.29835 194.26404
000020 5f 51 a3 43 2a 0d 4d 42 b2 cb 06 c3 3c 45 5e 43
       326.6357 51.262856 -134.79568 222.27045
000030 08 ad 2c 43 02 4c 48 c3 c1 65 78 43 32 21 cf c1
       172.6759 -200.2969 248.39748 -25.891209
000040 87 e7 36 43 6e d4 a4 42 df 16 54 43 3b d3 e5 42
       182.9044 82.4149 212.08934 114.91256
000050 75 d6 08 c3 7c c8 29 c3 ee 77 aa 43 8f f3 0c 43
       -136.83772 -169.78314 340.93695 140.9514
000060 83 d0 85 43 a4 41 ec 42 71 87 ce 42 6c 16 2f 43
       267.629 118.128204 103.264534 175.08759
000070 cd dd bb 42 8c e1 0c 42 48 97 14 43 6e 5c a3 c2
       93.933205 35.22026 148.59094 -81.68053

core.4.running_var f4 [32]
000000 0b ca c8 45 c8 a8 b3 44 43 c5 8e 46 77 b8 dc 46
       6425.2554 1437.2744 18274.63 28252.232
000010 61 d0 59 47 11 ed 06 47 bf b7 cd 46 cb ec 86 47
       55760.38 34541.066 26331.873 69081.586
000020 a4 5e 17 48 64 b4 f5 45 4f ac ec 46 13 56 82 47
       155002.56 7862.549 30294.154 66732.15
000030 d6 5d 0d 47 bc 3e 6e 47 21 b3 97 47 a2 73 53 45
       36189.836 60990.734 77670.26 3383.227
000040 58 d6 3b 47 57 20 0b 46 98 8d 49 47 ae 34 e6 46
       48086.344 8904.085 51597.594 29466.34
000050 83 ab c9 46 3c 14 10 47 08 8c 25 48 8b 99 18 47
       25813.756 36884.234 169520.12 39065.543
000060 60 3d c7 47 e3 5d 3e 46 14 e1 92 46 c8 48 2a 47
       102010.75 12183.472 18800.54 43592.78
000070 42 3a 6b 46 44 8b e6 45 2e 0c 05 47 e3 0e 63 46
       15054.564 7377.408 34060.18 14531.722

core.6.weight f4 [32, 32, 6, 6]
000000 3b 76 16 3f 49 1c 15 3f ed 1b 1e 3f 0e ff 19 3f
       0.58774155 0.58246285 0.6176136 0.6015481
000010 4b cf 1c 3f 13 ad 1c 3f 94 ba 1b bf b9 d9 ab be
       0.61253804 0.6120159 -0.6083157 -0.33564547
000020 90 99 16 bf 29 4e 1e bf c0 f4 1e 3f d5 9f 1b 3f
       -0.5882807 -0.6183801 0.6209221 0.6079076
000030 82 ae 15 3f 0c ac 1c 3f 72 20 19 3f c8 c2 19 3f
       0.584694 0.6120002 0.5981513 0.6006284
000040 0f a2 20 3f 98 f4 1a 3f 12 45 1b 3f 9d b6 1e 3f
       0.6274728 0.6052947 0.6065227 0.61997396
000050 c3 ab 18 3f b0 07 1e 3f 2b 80 1f 3f 61 d4 13 3f
       0.5963709 0.6173048 0.62304944 0.5774594
000060 05 f1 1c 3f 89 8b 14 3f 5c f4 1e 3f 73 57 1d 3f
       0.61305267 0.58025414 0.6209161 0.6146156
000070 88 4b 15 3f 7b 45 12 3f 9f 77 14 3f bd a1 13 3f
       0.58318377 0.5713727 0.5799503 0.5766867
000080 5c b6 1b 3f 08 fc 16 3f fd 53 1e 3f e3 4c 11 3f
       0.60825133 0.5897832 0.61846906 0.56757945
000090 0d 6a 1d 3f a1 17 1d 3f fd e0 22 3f df 8a 15 bf
       0.61489946 0.6136418 0.63624555 -0.58415025
0000a0 20 63 19 bf ae 78 15 bf 3a 96 14 3f 0d 1a 16 3f
       -0.5991688 -0.5838727 0.5804173 0.586335
0000b0 4a 30 17 3f 0e 10 12 bf 3e 66 17 bf 4e 3d 13 bf
       0.5905806 -0.5705575 -0.59140384 -0.5751542
0000c0 04 26 1c 3f 8e c0 20 3f 0a 65 11 bf 38 e3 15 bf
       0.6099551 0.62793815 -0.567948 -0.58549833
0000d0 26 96 14 bf 9c 18 17 bf ba d7 19 3f 5c a7 20 3f
       -0.5804161 -0.59021926 0.600948 0.6275537
0000e0 04 1b 19 bf 09 a2 16 bf 87 d2 16 bf 11 c3 20 bf
       -0.5980685 -0.58840996 -0.5891499 -0.6279765
0000f0 87 4b 1a 3f d4 c4 1c 3f ed 4c 16 3f fd 27 17 bf
       0.60271496 0.61237836 0.5871113 -0.5904539
000100 ad ef 1e bf 7c be 1c bf c0 36 1c 3f f9 4c 20 3f
       -0.62084466 -0.61228156 0.6102104 0.6261745
000110 00 c4 12 bf c7 72 14 bf dc 80 12 bf cc cd 20 bf
       -0.5733032 -0.57987636 -0.57227874 -0.6281402
000120 81 5c 19 3f b0 d1 15 3f b2 55 1d 3f a7 87 17 3f
       0.59906775 0.5852308 0.61458886 0.59191364
000130 50 d8 18 3f 93 3f 1f 3f 71 52 15 3f 4a ae 1d 3f
       0.59705067 0.6220638 0.5832892 0.6159407
000140 b2 21 12 3f 7c b7 15 3f 72 c2 1c 3f 6d 50 1b 3f
       0.57082665 0.584831 0.612342 0.60669595
000150 8c 78 1f 3f f2 18 1d 3f 12 f2 1d 3f bb 19 1a 3f
       0.62293315 0.6136619 0.61697495 0.6019551
000160 e8 03 14 3f 29 b1 1b 3f ac e7 1e 3f b0 e4 20 3f
       0.5781846 0.608172 0.62072253 0.6284895
000170 8c 99 1f 3f ec 64 1c 3f 1f 19 14 3f 99 19 1e 3f
       0.6234367 0.61091495 0.5785083 0.6175781
000180 39 f5 11 3f 31 3a 1f 3f a7 1d 19 3f a9 dc 12 3f
       0.57014805 0.6219817 0.5981087 0.5736795
000190 95 65 1d 3f a8 e9 1e bf 4b f0 1c 3f 83 cd 1f 3f
       0.61483127 -0.6207528 0.6130416 0.6242296
0001a0 14 13 13 3f 59 78 12 3f af 3b 1a 3f 99 99 16 3f
       0.57450986 0.57214886 0.6024732 0.5882812
0001b0 6c 9f 1b 3f ae dd 10 3f 8a 5a eb be 2b 21 26 bf
       0.60790133 0.56588256 -0.45967513 -0.6489436
0001c0 81 79 0f 3f 84 ed cf 3e 44 f6 19 bf b3 53 14 bf
       0.56044775 0.40610898 -0.60141397 -0.57940215
0001d0 f9 3c 18 bf f9 e2 17 bf 74 49 1c bf b9 32 1f bf
       -0.59468037 -0.5933071 -0.6104958 -0.6218677
0001e0 e1 56 14 bf 21 7a 1d bf c2 cf 1a bf ec 45 18 bf
       -0.57945067 -0.6151448 -0.60473263 -0.5948169
0001f0 92 be 1f bf ea 64 18 bf 9d 46 16 bf 64 62 15 bf
       -0.6240016 -0.5952898 -0.587015 -0.5835326
000200 b2 ab 20 bf 51 f3 1e bf b5 f7 22 bf 43 3c 20 bf
       -0.62761986 -0.6209002 -0.6365922 -0.6259195
000210 dc f5 18 bf d6 ec 1c bf d4 0a 17 bf bc 8e 13 bf
       -0.5975015 -0.6129888 -0.590009 -0.5763967
000220 d7 48 20 bf 99 dd 28 bf 40 95 22 bf 57 4a 22 bf
       -0.62611145 -0.6596313 -0.6350899 -0.63394684
000230 80 f3 15 bf 37 11 24 bf ab 09 30 bf cc 6a 17 3f
       -0.58574677 -0.6408877 -0.6876475 0.59147334
000240 4c 79 1e bf 14 58 1d bf 6b a8 14 bf 54 16 1b 3f
       -0.61903834 -0.6146252 -0.58069485 0.60580945
000250 dc a0 16 3f 8f 21 19 bf aa 92 15 bf b2 2e ce be
       0.588392 -0.5981683 -0.58426917 -0.4027
000260 b2 2f 1a 3f 7d 9b 11 3f 1b 6f 20 3f 8c 74 1a 3f
       0.6022903 0.5687788 0.62669533 0.60334086
000270 cd a4 1c bf 87 4e 16 3f 87 3e 1b 3f 33 4f 15 3f
       -0.61188966 0.58713573 0.60642284 0.58323973
000280 f9 e7 17 3f 6a 93 13 3f c0 00 1f 3f bf 6e 19 3f
       0.5933834 0.5764681 0.6211052 0.5993461
000290 9e 59 1c 3f 63 6c 1a 3f f3 dd 1a 3f 72 44 17 3f
       0.61074245 0.60321635 0.6049492 0.59088814
0002a0 53 ed 1b 3f 0d a8 20 3f 05 7d 15 3f c0 1d 14 3f
       0.60909003 0.62756425 0.5839389 0.57857895
0002b0 d0 52 1c 3f f2 95 1d 3f de 6e 13 3f 10 f7 16 3f
       0.6106386 0.61556923 0.57591045 0.5897074
0002c0 94 ed 1b 3f 01 d1 16 3f 97 2d 19 3f 5f 33 19 3f
       0.6090939 0.58912665 0.5983519 0.5984401
0002d0 45 a6 1c 3f 22 4b 19 bf 4b e9 20 bf 64 e5 13 bf
       0.6119121 -0.5988027 -0.62855977 -0.577719
0002e0 b1 58 1d bf 90 b1 19 3f 58 9a 17 3f f5 09 18 bf
       -0.6146346 0.60036564 0.59219885 -0.59390193
0002f0 c6 89 19 bf 2d a9 1d bf e3 fb 1e bf 90 61 12 3f
       -0.5997585 -0.61586267 -0.621031 0.5718012
000300 aa b1 1f bf 98 df 18 bf 3e 45 13 bf 48 d9 1a bf
       -0.6238047 -0.59716177 -0.5752753 -0.60487795
000310 38 82 1f bf 96 ec 1b bf 09 e3 20 bf fa 74 1f bf
       -0.62308073 -0.60907876 -0.6284643 -0.6228787
000320 37 ba 19 bf bd c0 1c bf 34 bd 19 bf b4 79 17 bf
       -0.60049766 -0.61231595 -0.60054326 -0.5917008
000330 35 97 1d bf 37 f5 1b bf 3f 88 17 bf 6d d0 14 bf
       -0.6155885 -0.60921043 -0.5919227 -0.5813053
000340 4b 7c 17 bf d2 f4 13 bf 21 f3 18 bf d1 f2 17 bf
       -0.5917403 -0.5779544 -0.59745985 -0.59354883
000350 9d 29 10 bf 42 5c 14 bf 9e b8 18 bf ea a9 1a bf
       -0.56313497 -0.57953274 -0.59656703 -0.6041552
000360 4c 40 16 3f ee a6 21 3f 14 c2 1e 3f 80 fc 1a 3f
       0.5869186 0.6314534 0.6201489 0.60541534
000370 41 92 1d 3f ac db 1a 3f 0e 42 3d 3f 6c ad 15 bf
       0.6155129 0.6049144 0.73928916 -0.58467746
000380 21 97 15 bf 07 ca 17 bf f8 bb 18 bf 67 06 1d bf
       -0.5843373 -0.59292644 -0.5966182 -0.61337894
000390 21 cb 1a 3f ae c3 20 3f 5b b3 21 3f 59 1b 16 3f
       0.604662 0.62798584 0.631643 0.5863548
0003a0 58 f8 18 3f ca bc 12 3f 88 39 18 3f 2e 03 19 3f
       0.5975394 0.5731932 0.59462786 0.59770477
0003b0 58 0b 1c 3f d0 be 16 3f 6f 0e 18 3f 43 71 17 3f
       0.6095481 0.58884907 0.59397024 0.591572
0003c0 dc 88 1d 3f a0 c8 20 3f b3 1f 1f 3f 61 fb 13 3f
       0.61536956 0.6280613 0.62157744 0.5780545
0003d0 e0 06 19 3f 3a f9 14 3f bd 81 18 3f 67 41 1d 3f
       0.59776115 0.5819279 0.59572965 0.6142792
0003e0 6e ed 1c 3f 0b 76 13 3f fc 06 15 3f 5a e1 18 3f
       0.6129979 0.57601994 0.5821378 0.5971886
0003f0 6b fa 1f 3f 2b 7b 18 bf 3f 51 1e bf 79 c1 17 bf
       0.6249148 -0.5956294 -0.6184272 -0.5927959

core.6.bias f4 [32]
000000 71 91 7e bc e8 67 2a 3c ac 4c 3c 3c 5d 0a a0 bc
       -0.015537606 0.01040075 0.011492889 -0.019536192
000010 b6 75 0c bd dc 8d d3 3c 2c 0f 24 3d a4 22 e2 bc
       -0.034291945 0.02582448 0.04005353 -0.027604409
000020 3b a5 cb bc 7f d8 10 bc 52 ae f7 3c 0e 77 82 bb
       -0.024859061 -0.008840679 0.03023449 -0.0039814776
000030 87 56 7f 3c 79 22 39 3d 18 07 99 bc 75 f5 b2 3c
       0.015584595 0.04519889 -0.01868014 0.021845559
000040 1a 72 af bc 8d c7 9b 3c 84 f1 6a bb bd a1 57 3c
       -0.021416713 0.019016052 -0.003584952 0.01316112
000050 69 b0 51 3b 9c 72 03 bd 4e 21 b4 3c f8 47 f1 bb
       0.0031996018 -0.032091722 0.021988537 -0.0073633157
000060 2a e9 ef bb ef fb 08 3d bb 45 d0 3b a8 44 57 bc
       -0.0073214965 0.033443388 0.006355969 -0.0131389275
000070 27 d2 d8 bb 08 82 dd bb 43 23 16 bc bd 89 4f 3b
       -0.006616849 -0.0067598857 -0.0091636805 0.0031667792

core.7.weight f4 [32]
000000 84 d1 22 3f 98 7b 76 bf 66 15 3f 3e 6d 21 0f 3f
       0.63600945 -0.9628234 0.18660507 0.5591038
000010 d3 78 cb 3e 43 e5 0b 40 2f cd 96 be ad 1b 99 3f
       0.3974062 2.185868 -0.29453418 1.1961571
000020 8b be 29 3f 20 9c 35 40 1d 4c 1e 40 f2 a6 c8 3b
       0.6630637 2.837654 2.4733956 0.006123417
000030 4f 17 0f 40 c5 ae b1 3f df 5d 86 40 94 e2 10 c0
       2.2357976 1.388146 4.198959 -2.2638292
000040 07 68 42 40 f9 83 ac 3e 7d 84 8d 3f 3a 22 12 3f
       3.0375993 0.33694437 1.1056057 0.57083476
000050 a0 0b e8 3d c2 ab 20 3f 65 18 bc 3f d2 31 a0 3c
       0.11330342 0.6276208 1.4694945 0.019555006
000060 12 cb 33 40 d2 07 e1 3f 2d 40 73 3f d8 87 1c bd
       2.8092694 1.7580512 0.950198 -0.03821549
000070 8b 0f 66 bd eb 10 c8 3c 88 40 80 3e 31 cc fb 3f
       -0.056167167 0.02442213 0.25049233 1.9671689

core.7.bias f4 [32]
000000 09 0d 74 bf ca ee 7e bf d8 56 28 c0 92 67 2b bf
       -0.9533239 -0.99583113 -2.6303005 -0.6695491
000010 62 7c 8e bf 78 05 16 3f b0 f6 4e bf 2f b6 ca bf
       -1.1131709 0.58602095 -0.80845165 -1.5836848
000020 1b b4 41 3f b0 41 ae 3f c1 a3 a4 3f 76 f7 54 bf
       0.75665444 1.3613796 1.2862474 -0.83190095
000030 db c7 75 3f 7d 00 e6 3e b1 7f 42 3f 41 ca de be
       0.9600808 0.44922248 0.7597609 -0.43513682
000040 e5 fc b3 3f b0 aa 27 bf 3e db e6 bf d2 a8 13 bf
       1.4061552 -0.65494823 -1.8035657 -0.57679474
000050 3c 17 b1 bf e0 07 05 bf b1 c5 53 3f 4c be 91 bf
       -1.3835216 -0.5196514 0.8272353 -1.1386199
000060 57 e5 6b 3f ef 42 67 3f 24 ec df bf 6d d1 92 bf
       0.9214682 0.9033651 -1.7493939 -1.1470162
000070 50 41 8e be 6b 1b 97 bf 23 17 a8 bf 8c ea 21 3f
       -0.27784204 -1.1805242 -1.3132061 0.63248515

core.7.running_mean f4 [32]
000000 44 d2 0f c3 87 19 1b 41 79 ec be c2 16 a7 7c 43
       -143.82135 9.693732 -95.46186 252.65268
000010 c2 98 d8 41 0a 65 8c 42 ba d5 f5 42 f6 64 76 c2
       27.074589 70.19734 122.917435 -61.598595
000020 1b 68 ab c2 28 2c 32 43 85 27 08 43 fb e3 47 43
       -85.70333 178.17249 136.15437 199.89055
000030 48 70 84 42 49 21 73 41 34 dc 22 42 a8 0a 30 43
       66.2193 15.195626 40.715042 176.04163
000040 90 0e 97 41 97 a6 f4 41 de cc 60 c2 f9 47 57 42
       18.88211 30.581343 -56.200066 53.820286
000050 b8 3b 18 c3 b9 ba 53 43 a2 28 96 43 b3 1d 11 43
       -152.23328 211.72939 300.31744 145.11601
000060 53 74 20 40 ba 6f 1b 43 7e e0 fb c1 e6 b3 a6 42
       2.5070999 155.43643 -31.484615 83.351364
000070 c0 72 fa 42 d3 3a 3e c3 b7 44 81 41 f9 9f 5a 43
       125.22412 -190.22978 16.158552 218.6249

core.7.running_var f4 [32]
000000 40 34 82 46 5e c3 57 44 50 89 f8 46 ee b3 b4 47
       16666.125 863.0526 31812.656 92519.86
000010 51 7c 82 46 49 18 21 47 c7 8e e7 46 b9 c3 0d 45
       16702.158 41240.285 29639.389 2268.2327
000020 d7 a7 0d 46 73 39 35 48 cc 2b c9 47 c8 63 25 47
       9065.96 185573.8 102999.59 42339.78
000030 5c c5 aa 46 45 7b 09 47 21 97 cb 46 0e 28 aa 47
       21858.68 35195.27 26059.564 87120.11
000040 62 d2 5e 47 f2 0d 0b 47 54 e3 3f 46 7e 52 26 47
       57042.383 35597.945 12280.832 42578.492
000050 b4 17 e4 45 d3 37 fe 47 86 a6 10 48 be b2 1a 47
       7298.963 130159.65 148122.1 39602.742
000060 7e 53 b6 46 fe 04 8e 47 46 c4 0a 47 80 7b b7 45
       23337.746 72713.984 35524.273 5871.4375
000070 60 8f bb 47 77 2c a7 47 10 ed 3c 45 da 8d b4 47
       96030.75 85592.93 3022.8164 92443.7

core.9.weight f4 [32, 32, 6, 6]
000000 3e 0e d4 be 54 be 6b be a7 c7 2d 3f 15 77 1e bf
       -0.41417116 -0.23021823 0.6788277 -0.61900455
000010 dc 17 1f bf 97 24 1f 3f bb f5 14 bf 8b 99 1f bf
       -0.6214578 0.62165207 -0.58187455 -0.6234366
000020 8b ed 14 bf 4a 25 18 bf 2d 5c 17 bf 8d 1b 20 3f
       -0.5817496 -0.594319 -0.59125024 0.6254204
000030 55 80 17 bf 14 f7 15 bf a2 9d 12 bf 7d d1 1a bf
       -0.59180194 -0.58580136 -0.5727178 -0.60475904
000040 83 3a 17 bf f8 46 1f 3f 82 71 33 3f 99 39 15 3f
       -0.59073657 0.62217665 0.70095074 0.5829101
000050 13 18 20 3f 07 18 1b bf 00 ed 2c bf a7 67 1e 3f
       0.62536734 -0.6058354 -0.67549133 0.6187691
000060 4e 10 19 3f bb 87 13 3f a8 f1 17 3f 47 45 15 bf
       0.59790504 0.57628983 0.59353113 -0.58308834
000070 40 a9 1d bf f7 f3 14 bf 02 b9 17 3f 34 f8 28 bf
       -0.6158638 -0.5818476 0.59266675 -0.6600373
000080 b1 bd 12 3f 27 18 18 bf 48 a1 1e bf eb 9f 22 bf
       0.57320696 -0.59411854 -0.61964846 -0.63525265
000090 74 03 23 3f 1d 51 1d 3f c1 88 22 3f f9 9d 17 bf
       0.63677144 0.61451894 0.6348992 -0.5922542
0000a0 b1 53 17 3f 31 3e 22 3f 19 d0 1f 3f 5d 95 20 3f
       0.5911208 0.63376147 0.62426907 0.6272791
0000b0 e6 fe 1d bf 72 00 18 bf 0a 4a 1c bf 03 3f 16 bf
       -0.6171707 -0.5937568 -0.61050475 -0.586899
0000c0 4e c6 1c 3f 51 df 19 3f 9c 62 1b bf c8 fb 1d bf
       0.6124009 0.6010638 -0.6069734 -0.6171231
0000d0 f5 56 1d bf a0 b2 20 bf f0 4b 21 3f 1c 19 18 3f
       -0.6146081 -0.6277256 0.63006496 0.59413314
0000e0 c7 1a 18 bf 31 7c 1e bf 45 c7 28 bf 3b fd 13 3f
       -0.5941586 -0.6190825 -0.6592906 0.57808274
0000f0 cb f7 14 3f 8d ee 1c 3f 77 dd 15 bf 17 6f 1b 3f
       0.581906 0.613015 -0.58541054 0.60716385
000100 7a e5 14 3f d9 5e 1d 3f 9a 97 1e 3f 37 4e 1d 3f
       0.58162653 0.6147285 0.61950076 0.6144747
000110 7f 62 17 3f c8 1b 16 3f 21 bd 1c 3f 20 a5 1a 3f
       0.5913467 0.5863614 0.6122609 0.6040821
000120 e3 09 1b 3f 8a bb 19 3f 3f 9e 1a 3f 97 91 19 3f
       0.6056196 0.60051787 0.60397714 0.5998778
000130 d0 85 18 3f c2 28 1d 3f 14 2f 21 3f b8 1e 17 3f
       0.5957918 0.61390316 0.6296246 0.5903125
000140 19 77 15 3f c5 47 13 3f eb b3 18 3f 41 bd 16 3f
       0.58384854 0.57531387 0.59649533 0.5888253
000150 47 cc 1e 3f ab c3 1e 3f 8b fb 12 3f 3a 27 1f 3f
       0.6203045 0.62017316 0.57415074 0.6216923
000160 c4 a8 1d 3f b6 98 1a 3f 3b af 15 3f 2f 71 1f 3f
       0.6158564 0.6038927 0.58470505 0.6228208
000170 5c db 18 3f 12 4a 13 3f d4 f2 14 3f 62 c1 1c 3f
       0.59709716 0.575349 0.58183026 0.6123258
000180 47 b1 13 3f 15 8e 1b 3f 9e 2c 1e 3f 0a 45 21 3f
       0.5769238 0.60763675 0.6178683 0.6299597
000190 64 e0 14 3f d1 dc 11 3f 2c fb 1b 3f 22 d9 15 3f
       0.5815489 0.56977564 0.6093013 0.58534443
0001a0 19 7c 1c 3f c3 f1 1c 3f bf 83 1a 3f de 42 1d 3f
       0.6112686 0.613064 0.6035728 0.61430156
0001b0 60 21 f1 3e 68 bc d4 3e 2c d0 cf bf 7b 8c d4 3e
       0.47095776 0.41549993 -1.6235404 0.41513428
0001c0 02 33 4b bf ef e5 b8 bf c6 f9 23 bf 62 3a 20 bf
       -0.79374707 -1.444517 -0.64053 -0.62589085
0001d0 36 99 18 bf 49 bd 1f bf 5f 78 29 bf 94 d7 26 bf
       -0.5960878 -0.623982 -0.66199297 -0.65172696
0001e0 b9 74 14 bf cb 0f 13 bf 28 d8 17 bf 4a 92 1e bf
       -0.57990605 -0.57445973 -0.59314203 -0.6194197
0001f0 b5 90 1d bf 5d 75 1c bf 6f 46 17 bf 88 64 1d bf
       -0.6154893 -0.6111658 -0.5909185 -0.61481524
000200 84 1c 19 bf 4b 07 18 bf 6c d4 1f bf 45 3c 1e bf
       -0.59809136 -0.5938613 -0.62433505 -0.61810714
000210 d7 d5 12 bf ca 74 1f bf ba f0 1a bf 77 a8 1e bf
       -0.57357544 -0.6228758 -0.6052357 -0.61975807
000220 5b 4a 1d bf d0 3e 1e bf 96 32 12 3f 83 fa 15 3f
       -0.6144158 -0.61814594 0.5710844 0.58585376
000230 c4 ca 16 bf 63 be 1f bf aa ac 23 bf 09 90 20 bf
       -0.58903146 -0.6239988 -0.6393534 -0.6271978
000240 d5 40 1e bf c4 97 18 3f e9 75 37 3f a0 52 f8 be
       -0.61817676 0.59606576 0.7166429 -0.48500538
000250 84 a2 3e 3f 56 70 22 3f 80 ee 12 bf 34 b1 1b 3f
       0.7446673 0.6345266 -0.5739517 0.60817266
000260 10 37 43 3f f9 68 4f 3f 05 cd 25 3f 96 0d 24 3f
       0.76255894 0.8101955 0.6476596 0.6408323
000270 68 a8 18 bf bb b5 0c bf 3a f6 0d bf 5e 94 0f bf
       -0.5963197 -0.549648 -0.55453837 -0.56085765
000280 b5 29 02 bf 4d a3 62 3f 8c ef fb be 80 7c 0f bf
       -0.5084489 0.8853043 -0.49206197 -0.56049347
000290 f0 4c 17 bf 4b fe 0d bf 4b d0 13 bf 1c 27 01 bf
       -0.5910177 -0.55466145 -0.57739705 -0.504503
0002a0 16 b3 0e bf df 60 13 bf 14 24 17 bf 52 2a 14 bf
       -0.55742013 -0.5756969 -0.59039426 -0.57877076
0002b0 e7 6a 1c bf 8c 4c f2 be 9f 30 12 3f b7 cb 12 3f
       -0.6110062 -0.47324026 0.5710544 0.57342094
0002c0 57 3c 10 bf d0 7e 1b bf 31 aa 12 bf e1 79 f3 be
       -0.5634207 -0.60740376 -0.5729094 -0.47553924
0002d0 3c e2 05 3f cb 2c 24 3f ac 29 0d 3f 53 ef d2 3e
       0.5229833 0.6413085 0.5514171 0.41198215
0002e0 43 f6 72 bf ad 01 c1 3e 1a 3d 26 3f 76 2a 35 3f
       -0.94907016 0.3769659 0.64936984 0.70767915
0002f0 ac 50 20 3f 12 e6 0f bf 53 a1 16 bf d3 b0 21 bf
       0.62623096 -0.56210434 -0.5883991 -0.6316044
000300 68 dd 91 3f 62 bb c8 3c 9b d9 4a 3f 72 24 07 bf
       1.1395693 0.024503414 0.7923829 -0.52789986
000310 23 3a ef be af ab 14 bf 5e 26 40 3f ae fa 98 3f
       -0.46724042 -0.5807447 0.75058544 1.1951501
000320 e4 b8 56 3f e4 dd 03 bf e5 f9 b9 be ff 82 0b bf
       0.8387587 -0.51510453 -0.36323467 -0.5449676
000330 78 ba 45 3f f1 96 80 3f fd f6 7d 3f f0 66 13 bf
       0.77237654 1.0046064 0.99205 -0.57578945
000340 5f c4 9a be f3 ff 36 3f d0 51 37 3f a7 df 57 3f
       -0.30227944 0.714843 0.7160921 0.8432564
000350 4f af 4d 3f 9b ce a1 3f 4a e9 34 3f dc a2 28 3f
       0.80345625 1.2641176 0.7066847 0.65873504
000360 72 4d 16 3f 93 44 17 bf 9f fe 16 bf b2 bc 1c bf
       0.5871192 -0.5908901 -0.5898227 -0.61225426
000370 8b 30 1a bf 06 d9 0f bf d4 32 25 bf 13 09 20 bf
       -0.6023032 -0.56190526 -0.6453068 -0.62513846
000380 03 f0 15 bf c9 80 1e bf 54 c5 14 bf 38 d7 0b bf
       -0.58569354 -0.6191526 -0.581136 -0.5462527
000390 0c 21 12 3f 0f 16 22 3f 3b a3 13 bf e2 5b 11 bf
       0.57081676 0.6331491 -0.57670945 -0.5678083
0003a0 e8 ff 09 bf 3c a4 ff be 4b 46 14 bf 70 7a 15 bf
       -0.53906107 -0.49929988 -0.5791976 -0.5838995
0003b0 9b 87 16 bf 1b 5d 18 bf 91 45 13 bf 0c 96 17 bf
       -0.5880067 -0.5951707 -0.57528025 -0.5921333
0003c0 63 bd 21 3f 00 44 0d bf 31 76 f2 be f1 bc 0b bf
       0.63179606 -0.55181885 -0.47355798 -0.54585177
0003d0 fe 0c 0b bf a6 1a 4c 3f b9 a0 18 3f 0a 00 19 3f
       -0.543167 0.7972816 0.59620243 0.59765685
0003e0 5f 08 1f 3f a0 1f 06 bf d4 c7 5d 3f f2 a8 25 3f
       0.6212215 -0.52392006 0.8663304 0.64710915
0003f0 b9 80 d4 be 19 ac 58 3f 1f 5e f3 be 9f 90 14 3f
       -0.41504458 0.846376 -0.47532746 0.58033174

core.9.bias f4 [32]
000000 d7 8d 7a 3c c4 2b bf 3c 96 ba a1 bb 77 1a b6 3c
       0.015292606 0.023336299 -0.004935573 0.022229416
000010 26 f3 a2 bc ce 2f 1c bd 25 71 53 3b 94 32 c2 3b
       -0.019891333 -0.038131528 0.0032263484 0.0059264395
000020 9d 5f f4 ba 50 a7 01 bd 0b 82 c0 3b d2 46 be 3c
       -0.0018644218 -0.031653702 0.0058748773 0.02322713
000030 4d 90 6b 3b a3 8d 96 3b 49 a8 b0 3c 2d a0 46 3c
       0.0035944164 0.004594521 0.02156462 0.01212315
000040 52 83 43 bc 41 4f a3 3c f2 af 97 3c 67 71 a7 3c
       -0.011933165 0.019935252 0.018516514 0.020439817
000050 5d ac 80 3b 05 0f a7 bc ae 8f 86 3c 51 44 ad 3c
       0.0039267973 -0.020392904 0.016425934 0.02115074
000060 f7 cc a8 bc 99 b9 e5 3b 7e 06 cc bc 52 b3 10 3c
       -0.020605547 0.0070106504 -0.02490544 0.008831816
000070 c4 59 1a bc b1 cf 83 3c de 90 cd 3c b5 1b d8 bc
       -0.009420816 0.016090246 0.025093492 -0.0263804

core.10.weight f4 [32]
000000 39 82 56 40 84 ae 1c 40 9b 15 fa 3c 77 a6 f6 3f
       3.3516982 2.4481516 0.03052788 1.9269551
000010 5d 95 9c bf a9 37 68 3d 9a 2f 3e 3f 05 df c6 3f
       -1.2233082 0.056693707 0.74291384 1.553681
000020 4e d8 3a 3d a5 b2 23 40 5e 47 67 40 e6 28 dd bf
       0.04561644 2.5577786 3.613731 -1.7278106
000030 09 d0 82 40 3b 7d 2b 40 30 e0 3f 40 66 cd 28 40
       4.087895 2.6795185 2.9980583 2.6375365
000040 76 c4 55 40 13 02 41 3c d7 b1 2b bd 42 22 ce 3d
       3.340116 0.01178028 -0.04191765 0.10065128
000050 8b e5 1f bd fa 91 20 3f 45 13 5b 40 e7 00 66 3e
       -0.03903727 0.6272274 3.423051 0.22461282
000060 ed 53 3b 40 7c 27 48 3f 0f ba 3b 40 86 ce 59 40
       2.9269974 0.7818525 2.933231 3.4032302
000070 1e c9 6b 40 d2 b5 aa 3d 6e f5 a3 bc 7c 85 52 40
       3.6841502 0.08335461 -0.020014491 3.2893972

core.10.bias f4 [32]
000000 8c d8 23 3f 16 77 75 bf 59 ed 44 bf 23 12 68 be
       0.640023 -0.95884836 -0.76924664 -0.22663169
000010 ff 30 8f bf 83 82 7a bf 36 99 91 bf 32 3b 94 3e
       -1.1186827 -0.97855395 -1.1374881 0.28951412
000020 dd 9d 97 bf a6 3a 02 3f cf 85 0f be f4 47 fc be
       -1.1845051 0.5087074 -0.14015888 -0.49273646
000030 a3 61 3f 3f 40 b8 37 3f 9a 2c 14 3f 5b 53 21 3f
       0.74758357 0.7176552 0.57880557 0.63017815
000040 8f fc fc 3f 0a e7 90 bf c6 9c 41 bf a6 1b 88 bf
       1.9764575 -1.1320508 -0.7562984 -1.0633438
000050 4d 48 96 bf c7 f2 43 bf f2 a5 c0 3f 48 24 46 be
       -1.1740814 -0.76542324 1.5050642 -0.19349778
000060 c2 2a 8b 3e 96 f7 92 bf f5 80 5f 3f 40 ce a1 3f
       0.2718106 -1.1481807 0.8730615 1.2641068
000070 f9 ee 7b 3f ce 00 82 bf 45 71 7f bf 5e de a6 3f
       0.9841152 -1.0156496 -0.9978221 1.3036611

core.10.running_mean f4 [32]
000000 59 c6 e4 42 0d 83 e3 42 12 47 17 42 e1 e4 05 43
       114.3874 113.75596 37.819405 133.89406
000010 01 76 a6 42 7a c5 0e 43 e3 b9 88 41 48 35 08 43
       83.23048 142.7714 17.090765 136.20813
000020 59 ce 1a 42 27 97 3d c2 ed ed e0 42 53 9d 10 c3
       38.70151 -47.39761 112.4647 -144.61455
000030 a1 22 97 42 df d8 e0 42 40 00 f5 42 23 5b 13 43
       75.567635 112.42358 122.50049 147.356
000040 d6 63 28 43 02 d1 c4 42 43 ba dc 41 ca 17 8c c2
       168.38998 98.40822 27.590948 -70.04646
000050 59 53 a4 c2 19 e5 69 42 68 78 e4 42 3c a5 b3 42
       -82.16279 58.47373 114.23517 89.82272
000060 92 f9 2c 42 9b 5e f9 c2 41 72 c9 42 19 e5 1b 43
       43.24372 -124.68478 100.72315 155.89491
000070 30 35 8d 42 45 7a a4 c2 59 f8 98 c2 39 16 02 43
       70.60388 -82.23881 -76.485054 130.0868

core.10.running_var f4 [32]
000000 90 5c 15 47 fd b7 54 47 86 92 3d 46 21 4c b5 47
       38236.562 54455.99 12132.631 92824.26
000010 bf 15 c7 46 57 55 a8 47 8f f7 2d 46 e3 09 6c 47
       25482.873 86186.68 11133.89 60425.887
000020 5b db e6 46 42 37 1d 46 1b 62 64 47 63 1a ac 47
       29549.678 10061.814 58466.105 88116.77
000030 9d fa ea 46 87 86 4a 47 8b 3e a8 47 b7 7e d8 47
       30077.307 51846.527 86141.086 110845.43
000040 3b b7 c0 47 43 37 16 47 00 4c 07 46 0f c7 e0 46
       98670.46 38455.26 8659.0 28771.53
000050 bb f4 af 46 d2 db 42 46 5e 61 8d 47 f9 09 06 47
       22522.365 12470.955 72386.734 34313.973
000060 2d 94 80 46 10 eb 46 47 c9 7d 7a 47 35 8c bd 47
       16458.088 50923.062 64125.785 97048.414
000070 69 f1 1f 47 72 dd 16 47 49 95 0e 47 82 51 af 47
       40945.41 38621.445 36501.285 89763.016
